programs/wake/precise-lite/share/hey_mycroft.tflite (tflite, 21888 bytes, 10 tensors)

sequential/dense_1/MatMul f4 [1, 20]
0.8090397 0.80298203 -0.5977712 -0.027381213 -0.24924842 -0.08974236 0.10574773 -0.71430963
0.4281679 -0.20255883 -0.28222406 0.57338524 -0.113522 0.66604006 -0.5866617 0.020833293
-0.40146267 -0.18117025 0.1790394 -0.45338288
00000000: 3a1d 4f3f 3b90 4d3f 8907 19bf 914e e0bc
00000010: fa3a 7fbe d8ca b7bd 4492 d83d ffdc 36bf
00000020: d338 db3e 956b 4fbe ac7f 90be 60c9 123f
00000030: 397e e8bd 9a81 2a3f 762f 16bf 95aa aa3c
00000040: 848c cdbe b284 39be 1b56 373e cd21 e8be

sequential/net/while/gru_cell/strided_slice_3 f4 [20]
-0.31836876 -0.7887039 0.36029863 0.570378 -0.5739196 -0.45067012 -0.0100667495 -0.12867273
-0.27984926 0.19418448 0.095281556 0.51892537 0.2949312 0.7872385 0.44721955 -1.0259911
0.8065241 0.18961422 -1.1238436 -0.7189708
00000000: 3b01 a3be 80e8 49bf 1079 b83e 4b04 123f
00000010: 65ec 12bf 3cbe e6be 02ef 24bc c9c2 03be
00000020: 6748 8fbe 4cd8 463e fa22 c33d 4bd8 043f
00000030: 3901 973e 7688 493f f6f9 e43e ad53 83bf
00000040: 5d78 4e3f 3b2a 423e 1bda 8fbf 780e 38bf

sequential/net/while/gru_cell/strided_slice_4 f4 [20]
0.7178533 0.61756694 1.1370738 0.7991421 0.15543248 0.8548026 0.34090263 1.3816438
0.6771918 0.85585964 0.8136608 -0.015326541 0.79877615 0.34184256 0.5576258 0.5333912
0.8847137 -0.13099602 1.1097211 -0.46959558
00000000: 3cc5 373f de18 1e3f a28b 913f 9494 4c3f
00000010: b129 1f3e 58d4 5a3f ca8a ae3e b4d9 b03f
00000020: 715c 2d3f 9e19 5b3f 134c 503f 2c1c 7bbc
00000030: 987c 4c3f fd05 af3e 90c0 0e3f 538c 083f
00000040: 997c 623f d223 06be 570b 8e3f d56e f0be

sequential/net/while/gru_cell/strided_slice_5 f4 [20]
0.86711603 -0.60488 0.6484018 0.32778925 1.1760913 0.640983 0.7945636 0.67984176
-1.2305745 -0.22982228 -0.36373 0.17637053 -0.62550324 0.3692062 0.62697476 1.3818831
-0.044762135 0.4918296 -0.90579826 0.65523434
00000000: 51fb 5d3f 6ad9 1abf a9fd 253f fed3 a73e
00000010: 298a 963f 7617 243f 8568 4b3f 1c0a 2e3f
00000020: 7783 9dbf 8856 6bbe d23a babe 7a9a 343e
00000030: fb20 20bf 9808 bd3e 6b81 203f 8ce1 b03f
00000040: 8058 37bd 17d1 fb3e 65e2 67bf 70bd 273f

sequential/net/while/gru_cell/MatMul_3 f4 [20, 20]
0.026710898 0.23736854 0.09168004 -0.03134173 0.06273331 -0.006736944 0.53463423 0.11579111
0.33404467 0.13748161 0.0448366 -0.05969755 -0.2220062 0.18255705 -0.01663571 -0.31243068
0.09574036 0.09118577 -0.00866297 0.19283484 -0.1723947 0.295775 -0.0008742084 0.353893
0.3243442 0.02099117 0.22608332 -0.35228795 0.20570272 -0.10558528 0.030667773 -0.3140694
-0.44378412 0.3492254 -0.14713053 0.68129414 0.40692058 0.106749736 -0.09082648 -0.31355447
0.13765438 0.039004516 0.287921 -0.024993269 0.17132472 -0.04167052 0.07795107 0.021667546
-0.25750026 -0.16953501 0.0646802 -0.21558161 0.09879579 0.1301655 0.11634605 -0.16438875
0.23048604 0.085985966 -0.2030819 -0.07256828 -0.24157828 0.05496024 0.08924226 0.20068921
0.21951649 -0.06472976 -0.31719136 0.22821929 0.12593378 0.15935999 -0.06386815 -0.13534303
0.1718982 0.13870195 0.041230004 -0.3250345 -0.3998408 -0.25583607 -0.029770156 0.08698526
0.15922001 -0.027295202 -0.10911605 -0.1431133 -0.0657399 0.03861458 0.42631423 0.30982503
0.43284172 0.08853087 0.19210452 0.21218075 0.45168978 -0.15365048 -0.23732759 -0.73956686
-0.25647774 -0.09042878 -0.14006186 0.51240593 0.062400986 -0.15292834 -0.4451311 -0.050875884
0.14465277 -0.30695522 0.1467243 0.028242322 0.2030178 0.10435535 -0.31092694 -0.20232564
-0.1251303 -0.1696328 -0.3090496 -0.22177681 -0.16277148 0.4238846 -0.010060309 -0.061197974
-0.09478943 -0.14308053 0.036428135 0.121654995 -0.24085887 0.1334995 0.54265755 0.002893103
0.39193434 0.05663812 0.28094307 0.45086464 -0.2485233 -0.03929963 -0.120106876 -0.03616566
-0.009593236 -0.32036304 0.083727635 0.17570648 0.02189902 -0.0012429461 0.16863038 -0.14688742
-0.09426423 0.02644186 0.32959828 0.27969858 -0.043996006 0.0031313535 -0.024187714 -0.064723544
0.11750552 0.091192104 0.06622632 -0.067939594 0.25325727 -0.07757459 -0.058870565 0.16744839
0.04853131 0.38628888 -0.45610267 -0.46157807 -0.15325594 -0.07506791 0.094983645 0.07719126
0.049737617 0.62119824 -0.33064833 -0.14459237 -0.48963118 -0.21178348 -0.14278805 0.30486733
-0.13722546 -0.019032247 0.51173705 0.20705281 0.06998456 0.20647308 -0.010420514 0.12632084
-0.24215882 0.08457739 0.33401147 0.07743246 0.0005864952 0.09501068 -0.10676163 0.020721698
0.009718153 -0.10232661 -0.05437125 -0.12857261 -0.035366002 0.044786073 -0.045866195 0.045066386
-0.1393564 0.19780834 0.32131967 -0.40931037 -0.12779556 -0.050876915 0.15556479 0.02998574
0.06999093 -0.05256854 -0.3499627 0.015734125 -0.055570632 0.13993512 0.11545523 0.12911557
-0.022873152 -0.054393567 -0.29353693 0.059754632 -0.33538973 -0.11404225 -0.20627299 -0.429653
0.2606368 -0.005629569 0.148967 -0.053145174 0.125613 -0.29647204 0.002243773 -0.12616654
-0.31507134 -0.09236512 -0.03452561 0.022343928 0.14403549 -0.032452103 0.09444789 -0.22916219
0.014349454 0.013024328 0.21600796 0.036270246 0.019012189 0.054996006 0.23787291 0.14846188
0.12447334 -0.04788752 0.17199227 -0.027059393 -0.3333858 -0.12816061 -0.2287893 0.22649784
00000000: d0d0 da3c bd10 733e bfc2 bb3d 3060 00bd
00000010: 527a 803d 95c1 dcbb cadd 083f e423 ed3d
00000020: e707 ab3e fbc7 0c3e 95a6 373d 6b85 74bd
00000030: 9855 63be 3cf0 3a3e 9d47 88bc eaf6 9fbe
00000040: 8613 c43d 9bbf ba3d 21ef 0dbc 7f76 453e
00000050: 3c88 30be d26f 973e 222b 65ba 7731 b53e
00000060: 7110 a63e adf5 ab3c 6382 673e 165f b4be
00000070: bca3 523e 183d d8bd fb3a fb3c b4cd a0be
00000080: ac37 e3be accd b23e 63a9 16be 4b69 2e3f
00000090: e557 d03e 9b9f da3d 3c03 babd 368a a0be
000000a0: 45f5 0c3e 33c3 1f3d 626a 933e afbe ccbc
000000b0: bf6f 2f3e b5ae 2abd d0a4 9f3d 2380 b13c
000000c0: 13d7 83be 969a 2dbe 0d77 843d 6dc1 5cbe
000000d0: 7255 ca3d 1b4a 053e d646 ee3d 8655 28be
000000e0: 8804 6c3e 6919 b03d b4f4 4fbe ae9e 94bd
000000f0: 4c60 77be fd1d 613d a5c4 b63d 7981 4d3e
00000100: eec8 603e 0991 84bd e866 a2be 51b2 693e
00000110: c9f4 003e 442f 233e 4ecd 82bd 5d97 0abe
00000120: 1506 303e e207 0e3e cbe0 283d ec6a a6be
00000130: efb7 ccbe f2fc 82be 8be0 f3bc 5425 b23d
00000140: 920a 233e 309a dfbc 3c78 dfbd 4b8c 12be
00000150: a4a2 86bd 522a 1e3d dc45 da3e 63a1 9e3e
00000160: 6e9d dd3e ac4f b53d 0cb7 443e e945 593e
00000170: e243 e73e 8d56 1dbe 0106 73be 4154 3dbf
00000180: 0d51 83be b932 b9bd 606c 0fbe 092d 033f
00000190: 2d98 7f3d 3f99 1cbe 39e8 e3be 3b63 50bd
000001a0: db1f 143e 3c29 9dbe e53e 163e 715c e73c
000001b0: e6e3 4f3e 42b8 d53d d131 9fbe 742e 4fbe
000001c0: 2822 00be 39b4 2dbe c03b 9ebe 7619 63be
000001d0: 91ad 26be 6707 d93e ffd3 24bc baaa 7abd
000001e0: f620 c2bd b483 12be ab35 153d 4126 f93d
000001f0: b5a3 76be 18b4 083e 9beb 0a3f 379a 3d3b
00000200: 9eab c83e 60fd 673d c5d7 8f3e bbd7 e63e
00000210: e47c 7ebe a6f8 20bd 98fa f5bd 7122 14bd
00000220: f32c 1dbc a006 a4be 6579 ab3d 66ec 333e
00000230: 9365 b33c 5aea a2ba 71ad 2c3e a869 16be
00000240: 9b0d c1bd 999c d83c 1bc1 a83e a734 8f3e
00000250: 2835 34bd 6537 4d3b 5025 c6bc c78d 84bd
00000260: bca6 f03d edc2 ba3d aaa1 873d ea23 8bbd
00000270: f0aa 813e 6ddf 9ebd 4322 71bd 9777 2b3e
00000280: c4c8 463d a8c7 c53e 4a86 e9be f653 ecbe
00000290: 20ef 1cbe 34bd 99bd c986 c23d 7416 9e3d
000002a0: acb9 4b3d d906 1f3f bd4a a9be 0610 14be
000002b0: f0b0 fabe c5dd 58be 0837 12be 9217 9c3e
000002c0: d584 0cbe 84e9 9bbc 3301 033f a705 543e
000002d0: 1154 8f3d ae6d 533e ceba 2abc 405a 013e
000002e0: 7bf8 77be e936 ad3d 8d03 ab3e e994 9e3d
000002f0: 07bf 193a f694 c23d d7a5 dabd 8dc0 a93c
00000300: e338 1f3c 9d90 d1bd 63b4 5ebd 8aa8 03be
00000310: f1db 10bd 9a71 373d 31de 3bbd 8897 383d
00000320: 72b3 0ebe 458e 4a3e 0384 a43e 2191 d1be
00000330: d7dc 02be 5064 50bd 604c 1f3e a8a4 f53c
00000340: 6857 8f3d 1c52 57bd 502e b3be dae4 803c
00000350: 089e 63bd 274b 0f3e cb73 ec3d df36 043e
00000360: 7a60 bbbc cacb 5ebd 794a 96be 46c1 743d
00000370: 34b8 abbe fc8e e9bd 3a39 53be 7afb dbbe
00000380: 3072 853e 3f78 b8bb ce8a 183e c1ae 59bd
00000390: b2a0 003e 2fcb 97be 440c 133b cd31 01be
000003a0: 0851 a1be ed29 bdbd ba6a 0dbd 9d0a b73c
000003b0: 0a7e 133e 7fec 04bd e56d c13d 7ea9 6abe
000003c0: f919 6b3c fe63 553c 3131 5d3e 1c90 143d
000003d0: 73bf 9b3c 7e43 613d f594 733e 6406 183e
000003e0: e1eb fe3d b425 44bd be1e 303e a9ab ddbc
000003f0: 8bb1 aabe 893c 03be be47 6abe 0def 673e

sequential/net/while/gru_cell/MatMul_4 f4 [20, 20]
-0.38919374 -0.12767401 0.40467182 -0.33886936 -0.13186027 -0.08111129 0.3893894 0.013877714
0.25432897 0.33461952 -0.019018153 -0.020489056 0.043556407 -0.059754875 -0.22367603 0.08336862
-0.1831042 0.09060758 -0.01599265 -0.046120282 0.5785174 -0.40347433 -0.14483084 0.13209407
-0.14850861 0.2675546 0.34015226 -0.27312526 -0.5797861 -0.35744026 0.5685077 0.32504696
-0.06531084 -0.2764088 -0.061984885 0.15408403 0.29089302 -0.21878369 0.3377503 -0.13921598
-0.0061435117 -0.73148715 -0.0035702488 -0.09001769 -0.054554258 -0.079106055 -0.14494096 0.34081286
-0.2640622 0.5714341 -0.8044869 -0.016518481 -0.1824886 0.83288795 -0.0058122184 0.28752083
0.27265942 -0.7205282 -0.2733852 0.06484167 0.10596419 -0.007821639 0.1512214 -0.39646786
-0.119231395 -0.12091237 -0.21522337 0.26698935 -0.015835501 0.054394778 0.31782642 0.17358378
0.29748103 -0.39951944 -0.069733284 0.10444339 -0.015188421 -0.40993264 -0.22731008 0.052518226
-0.4500457 -0.28372344 0.5428454 0.7836329 0.5135334 -0.18869942 -0.022707755 0.31367782
-0.3757098 -0.1426687 0.5785105 -0.2253134 0.2657696 -0.25199986 0.17458361 -0.72679526
-0.016056169 0.47884127 0.35692492 0.10732978 -0.12091883 -0.017672101 0.21443148 0.16760829
-0.013160186 0.39367792 -0.54612786 -0.011324731 -0.22378612 -0.099690184 -0.34456164 0.014071248
0.1680845 0.11316347 -0.03565084 -0.05574421 -0.119734116 0.5913695 -0.2036153 0.38680175
0.27631623 0.088733464 -0.097315975 -0.5932227 0.1770219 0.20930393 -0.9218855 -0.050178833
0.043335747 0.09583178 -0.070563175 0.45201293 -0.39813992 -0.026652941 0.30152926 0.28346202
-0.01313385 0.06766659 0.04987126 -0.17047665 0.08704629 0.123213224 -0.10447686 -0.08104283
0.33084264 0.13266778 -0.2523131 0.21635534 -0.18614687 0.11715253 0.098612905 -0.021922536
-0.15626904 0.030648284 -0.18934949 -0.37417573 -0.007083302 0.0057670698 0.25188667 -0.044476103
-0.019242827 -0.21880311 -0.07624773 0.2018781 -0.39722767 0.5113844 -0.04467805 -0.1025723
0.09606122 -0.04645329 -0.17288916 0.3262984 -0.7156309 -0.33497387 -0.36817372 -0.02900556
0.080536954 0.4436282 -0.11107717 -0.09300057 -0.12551308 0.14387709 0.30248973 -0.10079623
-0.108943164 -0.09814549 -0.037132926 0.32013455 -0.19753216 0.03056697 -0.18182486 -0.26455897
-0.21572314 -0.11482517 -0.19737093 0.32907787 0.06023308 -0.22843528 -0.47357577 0.20049603
-0.27006292 -0.6414075 0.14115572 -0.17271501 -0.14344333 0.057657223 0.2206305 -0.15969168
0.26144403 -0.11060458 -0.3128022 0.11689881 -0.08281931 -0.041852605 0.0041199415 -0.038450066
0.10952367 0.091091886 -0.23503068 0.13856058 -0.3064156 -0.19618791 0.50338364 -0.17102593
-0.31357113 -0.24869901 -0.23818699 -0.27829087 -0.18761517 0.3136088 0.4620342 0.497018
-0.01648739 -0.31296337 0.24132283 -0.042320367 -0.83030665 0.18773815 -0.32943898 -0.034499675
-0.18914655 0.12135595 -0.09438983 0.18864548 -0.15375564 -0.070455715 -0.2082931 0.19568998
-0.0119844405 0.4239388 -0.33046117 0.061064158 -0.009801968 -0.3937347 0.093191296 0.14228573
00000000: 6744 c7be fabc 02be 2531 cf3e 4980 adbe
00000010: 6106 07be ad1d a6bd 0c5e c73e 5a5f 633c
00000020: 6837 823e 4053 ab3e f5cb 9bbc aad8 a7bc
00000030: 3468 323d 87c1 74bd 540b 65be 2bbd aa3d
00000040: ab7f 3bbe 7890 b93d 0503 83bc 9fe8 3cbd
00000050: b719 143f 3094 cebe 894e 14be ab43 073e
00000060: a412 18be ebfc 883e 7028 ae3e 13d7 8bbe
00000070: dd6c 14bf 6902 b7be b889 113f 8e6c a63e
00000080: b1c1 85bd 7485 8dbe dde3 7dbd 34c8 1d3e
00000090: eeef 943e d508 60be 9bed ac3e a28e 0ebe
000000a0: 834f c9bb be42 3bbf d6fa 69bb 325b b8bd
000000b0: 4974 5fbd 5b02 a2bd 676b 14be 067f ae3e
000000c0: 2933 87be 8149 123f daf2 4dbf c451 87bc
000000d0: 4bde 3abe 2538 553f 6c74 bebb ee35 933e
000000e0: 049a 8b3e 8974 38bf 25f9 8bbe b6cb 843d
000000f0: c103 d93d 5526 00bc c8d9 1a3e d6fd cabe
00000100: 972f f4bd e8a0 f7bd 8463 5cbe d4b2 883e
00000110: 74b9 81bc 0fcd 5e3d 25ba a23e f2bf 313e
00000120: 6f4f 983e d08d ccbe 53d0 8ebd 6be6 d53d
00000130: dbd8 78bc b1e2 d1be f9c3 68be 5a1d 573d
00000140: 646c e6be 3344 91be ebf7 0a3f 2a9c 483f
00000150: ed76 033f 6c3a 41be 9d05 babc 619a a03e
00000160: 095d c0be be17 12be 4419 143f 8eb8 66be
00000170: f412 883e 2006 81be 0cc6 323e 410f 3abf
00000180: 3a88 83bc af2a f53e ddbe b63e b7cf db3d
00000190: 4ba4 f7bd 15c5 90bc ed93 5b3e 82a1 2b3e
000001a0: d29d 57bc 2790 c93e 09cf 0bbf 5d8b 39bc
000001b0: 3028 65be 5e2a ccbd 626a b0be 178b 663c
000001c0: 581e 2c3e 40c2 e73d 9d06 12bd 0a54 64bd
000001d0: 2937 f5bd fe63 173f 8780 50be e10a c63e
000001e0: 5279 8d3e e4b9 b53d 994d c7bd 71dd 17bf
000001f0: 3b45 353e c553 563e b000 6cbf 5288 4dbd
00000200: d380 313d 7443 c43d 6d83 90bd 3d6e e73e
00000210: ffd8 cbbe 4557 dabc 0b62 9a3e ef21 913e
00000220: 5c2f 57bc c894 8a3d ce45 4c3d 6e91 2ebe
00000230: 5345 b23d 3757 fc3d f7f7 d5bd c9f9 a5bd
00000240: 3564 a93e 10da 073e 2f2f 81be 418c 5d3e
00000250: 499d 3ebe aaed ef3d 90f5 c93d e496 b3bc
00000260: fe04 20be 1c12 fb3c d5e4 41be f693 bfbe
00000270: 0b1b e8bb b0f9 bc3b 4af7 803e 932c 36bd
00000280: 22a3 9dbc ec0d 60be c527 9cbd 22b9 4e3e
00000290: 6d61 cbbe 17ea 023f 5500 37bd 6d11 d2bd
000002a0: bfbb c43d ce45 3ebd db09 31be 9510 a73e
000002b0: 9633 37bf b281 abbe 4481 bcbe 119d edbc
000002c0: 8ff0 a43d 3c23 e33e 6d7c e3bd 1577 bebd
000002d0: 8086 00be 8454 133e efdf 9a3e 416e cebd
000002e0: 981d dfbd 8100 c9bd b218 18bd ade8 a33e
000002f0: df45 4abe 9567 fa3c 4c30 3abe 4674 87be
00000300: 87e6 5cbe 7529 ebbd 9b1b 4abe e57c a83e
00000310: f6b6 763d f0ea 69be 8678 f2be d54e 4d3e
00000320: b045 8abe 4833 24bf 208b 103e 34dc 30be
00000330: cfe2 12be fb29 6c3d f6ec 613e 3786 23be
00000340: fedb 853e a784 e2bd 9c27 a0be a568 ef3d
00000350: 2c9d a9bd a36d 2bbd 9300 873b d17d 1dbd
00000360: f24d e03d 628e ba3d e2ab 70be d3e2 0d3e
00000370: 81e2 9cbe 7ce5 48be c0dd 003f 6c21 2fbe
00000380: 658c a0be f4aa 7ebe 4ae7 73be 247c 8ebe
00000390: 311e 40be 5591 a03e bf8f ec3e 2579 fe3e
000003a0: 9010 87bc bc3c a0be 551d 773e 1f58 2dbd
000003b0: fa8e 54bf 6e3e 403e 3aac a8be 884f 0dbd
000003c0: a2af 41be 7889 f83d 754f c1bd 482c 413e
000003d0: 1e72 1dbe 164b 90bd c94a 55be f462 483e
000003e0: 635a 44bc 820e d93e 3532 a9be 691e 7a3d
000003f0: 6f98 20bc 9897 c9be 14db be3d 5ab3 113e

sequential/net/while/gru_cell/MatMul_5 f4 [20, 20]
0.5224493 -0.123066 0.093727395 0.2001172 0.54328537 0.0654323 0.069062434 0.5366355
-0.03213426 -0.42258438 -0.58762467 -0.5676504 -0.058478404 -0.14552973 0.352598 -0.21035162
-0.46702346 -0.16154706 -0.00049300573 0.16365916 0.43604356 0.24893306 -0.3565815 0.33850884
-0.47332445 0.055194486 -0.2422855 0.04663703 -0.14982076 0.023684995 0.15286599 0.1892781
0.43925324 -0.048053943 -0.4173479 -0.3813707 -0.005771196 -0.04031976 -0.28278247 -0.010320672
-0.33937913 -0.46957752 0.48263612 0.5607688 -0.53509605 -0.05549174 0.1726042 -0.1546311
0.1919449 0.09511889 -0.038968794 -0.115139656 0.3413633 0.03290087 0.30610326 0.06723509
0.15261683 -0.082999684 -0.30222717 0.28013623 0.5401149 0.15863034 0.64643043 -0.6781537
0.13670342 -0.06927332 -0.2701345 -0.09170012 -0.09688696 0.03012532 -0.4423909 0.17611589
-0.37075803 -0.19954965 -0.26275128 0.049885068 -0.026865078 0.16140206 -0.43845728 0.19339669
0.33854994 0.08928212 0.088489234 0.20943631 0.22728378 0.020034822 0.50166136 -0.3237698
0.019581197 0.51680166 -0.21687077 0.45440558 0.18776971 -0.0639233 -0.25083634 -0.33703083
-0.2102149 0.15800512 0.048248336 -0.29728812 0.00044731062 -0.15406506 -0.3124308 0.42163894
0.16928574 0.18589726 -0.40169626 0.013306039 -0.025913779 -0.2112386 -0.030405693 -0.39719528
-0.36492124 -0.1135101 0.52220803 -0.6052361 -0.19798122 -0.009121713 -0.15407331 0.5194499
-0.07983054 -0.09086295 0.26623577 -0.07910054 0.13628492 0.4390691 0.5631221 0.11693963
0.03314559 0.13510807 -0.21237089 0.020150166 -0.1997309 0.15013006 -0.20692553 0.24984774
-0.5238029 -0.0435315 0.28741896 0.09354478 0.39542222 -0.5336977 -0.19692111 0.21149439
0.026832154 0.26546642 -0.055824537 0.074512444 -0.02541017 0.12182007 -0.25834084 0.4386742
-0.106786326 0.06664459 -0.6264847 0.52479017 0.47820637 0.23442857 -0.29668233 0.3172176
0.030186903 0.032056503 -0.19402325 0.3416927 -0.19930252 -0.29709822 0.3537766 0.33349088
0.14847346 -0.35480508 -0.06198519 -0.08452182 -0.06878462 -0.5142069 0.3980109 0.3509726
0.28728727 0.21471053 -0.2522669 -0.19298312 0.26716724 -0.31886378 -0.0029258109 0.08087131
-0.10198263 -0.41065463 0.09417513 -0.060013488 0.20338036 0.050263345 0.073508754 0.26557752
-0.040441386 0.13068216 0.8658245 0.43284887 0.2950931 -0.17474264 -0.07277438 0.2601812
0.1684475 0.13296263 0.043553177 -0.39936525 -0.001810661 0.004421582 -0.5486829 0.1683386
-0.34286466 -0.44793877 0.34781656 0.11425048 -0.28460106 -0.12198826 0.48864153 -0.003522551
0.056862976 0.25279242 0.041686144 0.5531855 0.14414659 -0.30832392 -0.001098343 -0.035049472
-0.118245184 -0.31351978 0.16254523 0.15094575 -0.22594614 -0.34691468 -0.090907075 0.09065067
0.0713735 0.60130084 -0.24218911 -0.20206197 -0.0994024 -0.59529513 -0.28658384 -0.10629387
-0.79801905 0.16968118 -0.0046178144 -0.38621044 -0.09780126 -0.0281853 0.28121644 -0.19357595
0.13631238 -0.13972026 0.03783556 0.17211986 -0.31208006 -0.55323535 0.5447784 -0.10815944
00000000: 3dbf 053f 070a fcbd 26f4 bf3d 86eb 4c3e
00000010: c014 0b3f 5f01 863d 9b70 8d3d f260 093f
00000020: 379f 03bd fb5c d8be 926e 16bf 8951 11bf
00000030: 0d87 6fbd bf05 15be ba87 b43e 6a66 57be
00000040: b31d efbe 986c 25be 0e3d 01ba 4496 273e
00000050: 1a41 df3e 4fe8 7e3e da91 b6be 0851 ad3e
00000060: 9557 f2be 9d13 623d b119 78be 7806 3f3d
00000070: 9d6a 19be 0907 c23c e788 1c3e 1ed2 413e
00000080: cde5 e03e 36d4 44bd a0ae d5be 0543 c3be
00000090: 4d1c bdbb 5526 25bd ddc8 90be 0918 29bc
000000a0: 1ac3 adbe 776c f0be 151c f73e 8b8e 0f3f
000000b0: 0efc 08bf 4f4b 63bd 28bf 303e 9d57 1ebe
000000c0: 348d 443e b1cd c23d be9d 1fbd 57ce ebbd
000000d0: 2cc7 ae3e 10c3 063d 91b9 9c3e 8db2 893d
000000e0: 9647 1c3e bdfb a9bd 85bd 9abe 046e 8f3e
000000f0: f844 0a3f fe6f 223e 777c 253f 7b9b 2dbf
00000100: fbfb 0b3e 2cdf 8dbd 124f 8abe 46cd bbbd
00000110: ac6c c6bd 60c9 f63c 0f81 e2be b957 343e
00000120: ffd3 bdbe be56 4cbe 5687 86be 4954 4c3d
00000130: 2714 dcbc 9546 253e 797d e0be c809 463e
00000140: 6b56 ad3e 8bd9 b63d d839 b53d 7976 563e
00000150: 14bd 683e 1120 a43c e16c 003f 28c5 a5be
00000160: bf68 a03c 1d4d 043f 5f13 5ebe d9a7 e83e
00000170: b446 403e 38ea 82bd 9f6d 80be 4e8f acbe
00000180: 9342 57be 18cc 213e 0ca0 453d 2636 98be
00000190: 0485 ea39 3bc3 1dbe eef6 9fbe 0fe1 d73e
000001a0: 3e59 2d3e da5b 3e3e 22ab cdbe 9301 5a3c
000001b0: 2249 d4bc ee4e 58be 5c15 f9bc 2e5d cbbe
000001c0: f5d6 babe fc77 e8bd 6daf 053f c1f0 1abf
000001d0: 97bb 4abe 3d73 15bc 65c5 1dbe abfa 043f
000001e0: 327e a3bd 5b16 babd 0e50 883e 77ff a1bd
000001f0: 468e 0b3e aacd e03e c528 103f 0b7e ef3d
00000200: acc3 073d c559 0a3e c177 59be f611 a53c
00000210: 4286 4cbe b2bb 193e 49e4 53be 16d8 7f3e
00000220: f217 06bf 164e 32bd 9428 933e 6894 bf3d
00000230: c874 ca3e 6aa0 08bf b0a5 49be fc91 583e
00000240: 1bcf db3c 37eb 873e 45a8 64bd fb99 983d
00000250: fd28 d0bc cd7c f93d 4045 84be e899 e03e
00000260: cab2 dabd f57c 883d 4d61 20bf a658 063f
00000270: 77d7 f43e 0b0e 703e bfe6 97be 586a a23e
00000280: 864a f73c ae4d 033d 08ae 46be 58f2 ae3e
00000290: f615 4cbe 421d 98be 3522 b53e 51bf aa3e
000002a0: 6d09 183e 03a9 b5be 2fe4 7dbd c719 adbd
000002b0: f3de 8cbd 10a3 03bf 16c8 cb3e aeb2 b33e
000002c0: 5117 933e 14dd 5b3e 2129 81be 5e9d 45be
000002d0: 25ca 883e 1d42 a3be f6be 3fbb db9f a53d
000002e0: 45dc d0bd 5341 d2be e4de c03d b4d0 75bd
000002f0: f142 503e f0e0 4d3d c28b 963d c7f9 873e
00000300: dea5 25bd 8bd1 053e ada6 5d3f 5e9e dd3e
00000310: 7116 973e bcef 32be bc0a 95bd 7836 853e
00000320: 807d 2c3e 5b27 083e d164 323d 9a79 ccbe
00000330: b453 edba ebe2 903b 7c76 0cbf f460 2c3e
00000340: f58b afbe 3b58 e5be 0315 b23e 28fc e93d
00000350: 3bb7 91be fbd4 f9bd 392f fa3e 99da 66bb
00000360: 27e9 683d 026e 813e 17bf 2a3d 919d 0d3f
00000370: 2a9b 133e a2dc 9dbe 47f6 8fba 0990 0fbd
00000380: 882a f2bd aa85 a0be 4272 263e 8691 1a3e
00000390: 6d5e 67be cd9e b1be 7d2d babd 0fa7 b93d
000003a0: 452c 923d daee 193f 6c00 78be 55e9 4ebe
000003b0: 7c93 cbbd 4365 18bf 1ebb 92be 9ab0 d9bd
000003c0: fa4a 4cbf e7c0 2d3e 0951 97bb 60bd c5be
000003d0: 074c c8bd dce4 e6bc 9afb 8f3e c638 46be
000003e0: 7995 0b3e d412 0fbe 76f9 1a3d 3040 303e
000003f0: f5c8 9fbe d5a0 0dbf 9976 0b3f b282 ddbd

sequential/net/while/gru_cell/MatMul f4 [20, 13]
-0.027224898 -0.00044492818 -0.028348643 -0.007418435 0.13976313 0.06979581 -0.025848396 0.014129781
0.0020754016 -0.13762507 -0.04643681 0.04710819 -0.063996196 -0.014937457 -0.026204096 0.0942284
0.025785126 0.048782274 0.048324242 -0.11779331 -0.07102626 0.1304552 0.24421477 0.037150238
0.14659904 -0.1647473 0.006031833 0.02184648 -0.05458985 -0.016797666 0.016642656 -0.044790298
-0.022788707 -0.0053649377 0.11714545 0.0152770635 0.009529336 -0.008342169 0.057742577 0.009370912
-0.009269471 0.038230523 0.09502145 -0.10549954 -0.10131672 0.13344735 0.19429812 -0.19549766
-0.055504628 0.13279635 0.098744445 -0.09357635 0.047739815 0.02013072 -0.12238755 -0.2681655
0.15831402 0.1259918 -0.014330595 0.043268427 0.15161651 0.10459411 0.01910133 -0.20232993
0.034942515 -0.11284333 -0.024215845 -0.01836211 -0.1113635 0.16251636 0.10108373 0.09342522
0.12378486 0.086788 0.2628121 -0.038852513 0.023217797 0.1793615 0.002854231 -0.0043214345
-0.021545103 -0.11777435 0.05701032 0.07917887 -0.018357074 -0.06370929 -0.04407458 0.11092472
-0.025195858 0.081635624 -0.24191982 -0.020268394 0.006620286 -0.035694223 0.06288965 0.05431281
-0.09209416 0.007563658 0.0067413645 -0.063949615 -0.019085629 -0.01588839 0.028524838 0.06375759
-0.04714139 -0.15609998 0.37851226 -0.13278657 0.23212539 0.47488108 -0.16347948 0.4534472
-0.32573003 0.09241552 0.02467337 -0.29030442 0.34365994 -0.02650474 0.0025635748 0.001662744
0.0015763215 0.032560624 -0.0015006769 -0.007966043 -0.10905167 0.018292215 0.09457818 -0.037743755
0.09548091 -0.018166978 0.006830209 0.008580145 0.04829744 0.037278354 -0.06262347 -0.090802304
-0.0550886 -0.09439388 -0.10489185 0.05810149 0.035193093 -0.077325396 -0.050885506 -0.14727415
-0.008785996 -0.07200937 -0.2499258 -0.23812866 -0.022971632 -0.047663167 0.19249214 0.39537042
0.09478839 0.04733127 -0.16614541 -0.1575468 -0.042616654 -0.02113789 0.052321814 -0.009738826
0.07267097 0.0804454 -0.055364966 -0.07397669 -0.06567127 0.0873843 -0.02212489 0.11453521
-0.08572791 0.034720425 -0.063890986 0.31834388 0.6482559 0.7245866 0.6758305 0.62861645
0.3569856 -0.09172985 -0.25067088 0.48929408 0.3526277 -0.24652585 -0.0017550446 -0.0008812975
0.022505062 0.06129057 -0.1003235 -0.0684922 0.03126548 -0.015661642 -0.110646315 0.02581691
0.019814255 0.059777413 -0.0985148 0.018313687 -0.002362357 -0.053091634 0.057429012 -0.021935178
0.21390174 0.060539905 -0.15477222 -0.020710755 0.082633734 0.17826024 0.16839054 0.24991319
0.015938342 -0.02928942 0.11030734 0.1601671 -0.026054876 0.003699754 -0.16433412 -0.06861084
-0.07100294 0.23644865 -0.017755771 0.029837735 0.041973893 -0.027781613 -0.029220724 -0.0027339982
-0.13253516 0.06460531 0.45489553 0.042268686 -0.18555762 -0.028207837 -0.11834199 -0.08920234
0.12727764 -0.03390403 -0.03403837 -0.031194294 0.087309964 -0.065477826 0.06554385 0.27662832
0.08471506 0.0029051998 -0.04272287 0.10914209 -0.109338656 -0.15698315 -0.05983142 0.020025963
-0.019954238 -0.019100804 0.16609097 0.055067215 -0.008420531 0.10867118 0.07235323 -0.10492383
00000000: c006 dfbc 4045 e9b9 6a3b e8bc 5816 f3bb
00000010: 111e 0f3e 1bf1 8e3d 04c0 d3bc 9980 673c
00000020: 7603 083b 96ed 0cbe 8634 3ebd 84f4 403d
00000030: 7010 83bd 3cbc 74bc f9a9 d6bc d2fa c03d
00000040: 543b d33c eccf 473d a4ef 453d 9e3d f1bd
00000050: 3776 91bd 0c96 053e 7013 7a3e d92a 183d
00000060: 0f1e 163e 84b3 28be afa6 c53b 64f7 b23c
00000070: 9b99 5fbd 429b 89bc 2e56 883c 0876 37bd
00000080: 62af babc 5ccc afbb f4e9 ef3d a64c 7a3c
00000090: ef20 1c3c 98ad 08bc 7b83 6c3d 7488 193c
000000a0: fbde 17bc 9c97 1c3d 9b9a c23d 2510 d8bd
000000b0: 247f cfbd 6ca6 083e 16f6 463e 8a30 48be
000000c0: d258 63bd c4fb 073e 873a ca3d f5a4 bfbd
000000d0: d38a 433d 2ee9 a43c 53a6 fabd fd4c 89be
000000e0: 121d 223e ff03 013e dfca 6abc 3c3a 313d
000000f0: 5c41 1b3e 7035 d63d 647a 9c3c 942f 4fbe
00000100: e21f 0f3d 671a e7bd 4f60 c6bc 236c 96bc
00000110: 8c12 e4bd b06a 263e fd04 cf3d b955 bf3d
00000120: eb82 fd3d e8bd b13d 4f8f 863e d023 1fbd
00000130: 4033 be3c 8baa 373e 0d0e 3b3b d29a 8dbb
00000140: 5b7f b0bc ae33 f1bd a783 693d 8828 a23d
00000150: 9361 96bc 047a 82bd 8c87 34bd 802c e33d
00000160: 8b67 cebc 9430 a73d d4b9 77be e709 a6bc
00000170: fcee d83b 1b34 12bd 4acc 803d 1c77 5e3d
00000180: dd9b bcbd 90d8 f73b aae6 dc3b 04f8 82bd
00000190: 7759 9cbc 5e28 82bc ecac e93c 5793 823d
000001a0: 5517 41bd acd8 1fbe 5ccc c13e 34f9 07be
000001b0: 47b2 6d3e 9d23 f33e 2a67 27be 3b2a e83e
000001c0: 16c6 a6be 5944 bd3d cf1f ca3c c8a2 94be
000001d0: 32f4 af3e 7820 d9bc a601 283b 6ef0 d93a
000001e0: 939c ce3a 4a5e 053d 5cb2 c4ba 0284 02bc
000001f0: 7b56 dfbd 8ed9 953c 34b2 c13d 3299 1abd
00000200: 7f8b c33d ead2 94bc f2cf df3b bd93 0c3c
00000210: 89d3 453d 30b1 183d bc40 80bd 8ff6 b9bd
00000220: 95a4 61bd 9451 c1bd 8ad1 d6bd d4fb 6d3d
00000230: a226 103d c75c 9ebd 526d 50bd 09cf 16be
00000240: 23f3 0fbc a679 93bd 8dec 7fbe 00d8 73be
00000250: 012f bcbc 743a 43bd a91c 453e fe6d ca3e
00000260: 6a20 c23d 6fde 413d 0622 2abe f353 21be
00000270: cd8e 2ebd 5e29 adbc 664f 563d 998f 1fbc
00000280: 84d4 943d 8fc0 a43d 60c6 62bd 1781 97bd
00000290: a97e 86bd 8af6 b23d 423f b5bc 7091 ea3d
000002a0: 1d92 afbd 0137 0e3d 47d9 82bd f8fd a23e
000002b0: 19f4 253f 827e 393f 3a03 2d3f 02ed 203f
000002c0: d1c6 b63e dcdc bbbd ef57 80be c184 fa3e
000002d0: 9e8b b43e 4671 7cbe 8609 e6ba e006 67ba
000002e0: 895c b83c d20b 7b3d 6876 cdbd a345 8cbd
000002f0: 3b10 003d d84c 80bc 899a e2bd fc7d d33c
00000300: 8151 a23c 29d9 743d 21c2 c9bd 9606 963c
00000310: c6d1 1abb 9d76 59bd af3a 6b3d 67b1 b3bc
00000320: 0f09 5b3e b1f8 773d 9c7c 1ebe 9aa9 a9bc
00000330: e03b a93d da89 363e 926e 2c3e 3ee9 7f3e
00000340: 2091 823c 5ef0 efbc d1e8 e13d d802 243e
00000350: 0971 d5bc 9277 723b 3447 28be d783 8cbd
00000360: fd69 91bd 981f 723e 8d74 91bc 446e f43c
00000370: d1ec 2b3d 4496 e3bc 4d60 efbc e12c 33bb
00000380: 4cb7 07be ca4f 843d 11e8 e83e ee21 2d3d
00000390: d102 3ebe 1f14 e7bc 495d f2bd b7af b6bd
000003a0: 1255 023e f4de 0abd d16b 0bbd 2d8b ffbc
000003b0: 91cf b23d 3d19 86bd db3b 863d 3aa2 8d3e
000003c0: 177f ad3d 2a65 3e3b 2dfe 2ebd e385 df3d
000003d0: f2ec dfbd 31c0 20be cb11 75bd 7d0d a43c
000003e0: 1277 a3bc 4a79 9cbc c013 2a3e 298e 613d
000003f0: 44f6 09bc ff8e de3d ee2d 943d 4ee2 d6bd

sequential/net/while/gru_cell/MatMul_1 f4 [20, 13]
0.21612452 0.077467404 -0.29642415 -0.14890376 0.18069391 0.08479936 -0.01697677 -0.037718307
0.13243666 -0.18100451 -0.3187522 0.12472918 0.042421408 -0.054913484 -0.0025829074 0.03112971
-0.20910257 -0.13788989 0.050325945 0.11883614 -0.17083457 0.15097636 0.17391302 0.15112698
0.06921658 0.39538178 -0.49244583 0.10648769 0.019917792 0.10532503 -0.13908099 -0.31944135
0.39530358 0.23709364 0.3967973 -0.37334672 0.2097473 -0.7047017 0.092845015 0.041269667
-0.0023003537 -0.024461403 0.005740921 -0.24098748 0.123653196 0.39508295 0.2154862 -0.15971743
-0.016276091 0.031250037 -0.063727446 -0.04545902 0.14983864 0.07156205 -0.12337551 -0.06652189
-0.30348283 -0.17604595 -0.032172903 -0.22712669 -0.15127766 -0.001658642 -0.2936589 -0.07858668
-0.25308114 -0.051612273 -0.0040465887 0.028427243 0.06450989 -0.12047343 0.20387109 -0.26989624
0.057734612 0.35068774 -0.034092214 -0.10947175 0.08921036 0.47169948 -0.087048605 -0.037243865
0.18959999 0.1476176 0.002906767 -0.08725423 -0.13171923 -0.10552106 -0.17457817 0.003254848
0.113113195 -0.15834981 -0.04367925 -0.41264093 -0.01777798 0.12759922 -0.05570193 0.091168925
-0.035566475 -0.036017284 0.0053115548 0.10797002 0.23649423 -0.13225007 -0.093164235 -0.013405449
-0.081237644 0.0014135023 -0.0063184965 -0.20977536 0.1026861 0.2189817 0.14155936 -0.46862775
-0.30219433 0.20759076 0.08404772 -0.4829884 0.2097955 0.033999458 0.0072818957 -0.13950026
-0.045370124 -0.15671928 -0.16398384 0.062825575 0.09798817 0.0020927037 -0.0163035 -0.1219567
-0.03489333 -0.08102045 0.019656228 0.03755589 -0.20601052 -0.115157686 0.21498212 -0.06061419
-0.32229644 -0.16505419 0.44555014 -0.02796389 -0.16506985 -0.12938257 0.042645328 0.12044927
0.10347135 -0.100467384 -0.2583396 -0.15683995 0.11728691 0.24160019 0.09378163 0.1658831
-0.069068134 0.14178628 -0.2128022 0.30490416 -0.2871604 -0.0023978553 -0.036804225 -0.020931568
-0.019297572 0.095673665 -0.11403992 -0.029721994 0.017642964 0.0094782915 0.0184991 0.08201399
-0.22385103 0.052823335 0.0023939845 0.16950886 0.076192126 -0.042595975 -0.47971687 -0.13775903
0.3993858 0.03681357 -0.09994122 0.047300834 -0.14504078 -0.479922 -0.2620589 -0.058031343
0.012278456 0.14816421 0.20864528 0.1402934 0.16916361 0.26147935 0.017717106 -0.20407178
-0.21391828 0.023482578 -0.104506545 0.046597444 -0.04433563 0.013436853 -0.089188285 0.15493871
-0.028541163 -0.2769926 -0.20669992 0.30152282 0.25949284 -0.056643672 0.055822756 0.013206683
-0.076084614 -0.037485566 0.12583622 -0.0008300517 0.041434027 -0.035994988 -0.09921635 -0.2170005
-0.023035066 0.1859546 0.09659975 0.3329128 -0.5492856 0.012435786 -0.0009252969 -0.14319101
0.051786583 -0.14235096 0.03331069 0.15233101 -0.05690398 -0.0055223224 -0.009231985 -0.0539289
0.12809333 0.24320634 -0.0883469 -0.020709196 0.03534357 -0.22897737 0.22806133 0.43653122
-0.34004086 -0.54968685 0.18734905 0.29393888 -0.19192837 0.076290704 0.33294055 -0.15049681
-0.053037975 -0.08351287 0.057914153 0.21877907 0.340116 -0.08225741 0.025522549 0.053475063
00000000: bf4f 5d3e 3ba7 9e3d e8c4 97be 3a7a 18be
00000010: d307 393e 49ab ad3d de12 8bbc 837e 1abd
00000020: 7a9d 073e 3f59 39be 7d33 a3be 0372 ff3d
00000030: 12c2 2d3d f6ec 60bd ff45 29bb bc03 ff3c
00000040: fc1e 56be 0233 0dbe 9422 4e3d 5d60 f33d
00000050: 42ef 2ebe 8c99 1a3e 4116 323e 08c1 1a3e
00000060: 6cc1 8d3d 7b6f ca3e dc21 fcbe 3816 da3d
00000070: a32a a33c a6b4 d73d 3f6b 0ebe d18d a3be
00000080: 3b65 ca3e adc8 723e 0429 cb3e 4d27 bfbe
00000090: ffc7 563e 5567 34bf 8725 be3d 620a 293d
000000a0: 88c1 16bb 4863 c8bc 561e bc3b 6cc5 76be
000000b0: e33d fd3d 5048 ca3e 6aa8 5c3e f78c 23be
000000c0: 7055 85bc 0a00 003d 8983 82bd 3d33 3abd
000000d0: 4d6f 193e 208f 923d 4dac fcbd a13c 88bd
000000e0: 1a62 9bbe 6445 34be bcc7 03bd e693 68be
000000f0: 88e8 1abe ca66 d9ba 765a 96be 0ef2 a0bd
00000100: da93 81be 6467 53bd 3f99 84bb 40e0 e83c
00000110: c31d 843d c6ba f6bd 95c3 503e d72f 8abe
00000120: 217b 6c3d 588d b33e 47a4 0bbd ba32 e0bd
00000130: ecb3 b63d 9882 f13e 8a46 b2bd 068d 18bd
00000140: 8026 423e 1129 173e 757f 3e3b 59b2 b2bd
00000150: 68e1 06be 6d1b d8bd 9fc4 32be 4a4f 553b
00000160: e4a7 e73d 7426 22be 03e9 32bd ac45 d3be
00000170: 20a3 91bc 5fa9 023e b527 64bd c6b6 ba3d
00000180: 27ae 11bd dc86 13bd 8d0c ae3b 631f dd3d
00000190: 8b2b 723e 906c 07be e4cc bebd 87a2 5bbc
000001a0: ec5f a6bd 4445 b93a 640b cfbb 5acf 56be
000001b0: 174d d23d bd3c 603e f0f4 103e faef efbe
000001c0: 37b9 9abe ac92 543e 3621 ac3d 414a f7be
000001d0: a2d4 563e 0443 0b3d f89c ee3b 28d9 0ebe
000001e0: 06d6 39bd 057b 20be 61eb 27be b2aa 803d
000001f0: 06ae c83d be25 093b eb8e 85bc 6fc4 f9bd
00000200: 4fec 0ebd 0dee a5bd 1906 a13c 34d4 193d
00000210: 6cf4 52be cbd7 ebbd 4624 5c3e 9646 78bd
00000220: 0a04 a5be f703 29be 261f e43e 8714 e5bc
00000230: 1208 29be dd7c 04be deac 2e3d 1bae f63d
00000240: cae8 d33d d8c1 cdbd 1745 84be a79a 20be
00000250: 1f34 f03d 0a66 773e 9510 c03d 42dd 293e
00000260: 9873 8dbd 6c30 113e d2e8 59be 661c 9c3e
00000270: b006 93be 5625 1dbb 07c0 16bd ae78 abbc
00000280: f115 9ebc 8ef0 c33d c38d e9bd 8a7b f3bc
00000290: fa87 903c d64a 1b3c 6d8b 973c f3f6 a73d
000002a0: 3439 65be 485d 583d 65e4 1c3b bb93 2d3e
000002b0: 9e0a 9c3d 1e79 2ebd 739d f5be b410 0dbe
000002c0: 4c7c cc3e d3c9 163d fbad ccbd 85be 413d
000002d0: 9285 14be 56b8 f5be 962c 86be 46b2 6dbd
000002e0: 942b 493c 5cb8 173e 1ca7 553e 13a9 0f3e
000002f0: 3a39 2d3e 9fe0 853e 7723 913c 31f8 50be
00000300: 650d 5bbe 895e c03c 8707 d6bd f6dc 3e3d
00000310: 4799 35bd 3f26 5c3c 59a8 b6bd 41a8 1e3e
00000320: 28cf e9bc f9d1 8dbe 25a9 53be 3361 9a3e
00000330: 3fdc 843e 3203 68bd 67a6 643d d860 583c
00000340: 40d2 9bbd 778a 19bd 36db 003e d497 59ba
00000350: bab6 293d 7b6f 13bd f131 cbbd 6135 5ebe
00000360: 09b4 bcbc e26a 3e3e 17d6 c53d 8c73 aa3e
00000370: fb9d 0cbf 78bf 4b3c a08f 72ba aaa0 12be
00000380: 2b1e 543d 73c4 11be ca70 083d a9fc 1b3e
00000390: 2614 69bd 99f4 b4bb c041 17bc 8de4 5cbd
000003a0: e62a 033e 150b 793e 38ef b4bd 55a6 a9bc
000003b0: 6bc4 103d 0b79 6abe e988 693e 0581 df3e
000003c0: d619 aebe 47b8 0cbf 6ed8 3f3e 287f 963e
000003d0: df88 44be 4d3e 9c3d 2f77 aa3e d61b 1abe
000003e0: 593e 59bd cc08 abbd 6437 6d3d 9f07 603e
000003f0: af23 ae3e 9376 a8bd aa14 d13c ab08 5b3d

sequential/net/while/gru_cell/MatMul_2 f4 [20, 13]
-0.26143712 0.022327797 -0.0951489 0.03793013 0.167003 0.017621325 -0.061051372 -0.094220646
0.038513035 -0.0727443 -0.1627681 -0.041298784 0.03887056 0.13259089 0.0077055055 -0.023425778
-0.03433826 0.0024461302 0.017779121 -0.017663611 -0.035830166 -0.1459954 -0.1260993 -0.05633103
-0.09854325 0.11630619 -0.038794458 -0.097392894 0.048107162 0.040315375 -0.035024412 0.05353231
0.082430266 -0.056369346 -0.09565955 0.019773683 0.03732999 0.03383257 -0.10055738 0.13267149
0.06579144 -0.124932595 -0.21494988 0.10208619 0.23302358 -0.094717436 -0.24332574 0.18068677
0.053080484 -0.0861859 -0.041261442 0.18528628 0.25540173 0.0022721551 -0.06103454 0.08189186
-0.11104247 -0.05387231 0.040548097 -0.00870859 -0.15410993 -0.09862825 0.0288486 0.10807822
-0.027010266 -0.2946519 -0.037610598 0.023955975 -0.30916598 0.028184261 0.47076702 0.19587258
0.05421382 0.033003226 -0.00049055315 -0.13649063 -0.2597199 -0.19944848 0.026782822 0.07099305
0.07138857 0.011206232 0.0331896 -0.17319609 -0.050446987 0.011116823 -0.12071103 0.03338531
0.19972122 -0.10365939 0.046644572 0.28621337 0.05622111 -0.063079044 -0.1035601 -0.20624892
0.06928859 -0.09125269 -0.26607627 0.18296826 -0.004667257 -0.060619622 -0.056041658 -0.0693219
-0.24220654 -0.103655085 -0.046492152 0.0073624947 0.17145802 0.30203453 0.084602 -0.08625898
0.047321305 0.19211578 -0.07118383 0.085031345 -0.12997513 -0.25096485 7.837312e-05 -0.059046023
-0.17080675 0.10326224 0.13339067 0.11980901 0.16102031 0.10795509 -0.06589212 -0.22730967
0.21889344 0.060455646 -0.14788306 -0.018759025 -0.061180804 -0.12064827 0.1089909 0.19589244
-0.0986381 -0.014930181 0.13098821 0.007816723 -0.13425559 0.03405598 0.038436674 -0.10631963
0.07462506 0.17628706 -0.1361312 0.081911944 -0.02476333 -0.06435377 -0.041133784 0.086171106
-0.05909645 0.07516554 -0.18986447 -0.055262838 -0.38767272 -0.030724935 0.19502176 0.027457206
0.11736492 0.13828838 -0.051228426 -0.03167666 -0.12217804 0.023699401 0.09532945 -0.07456387
-0.12486207 -0.1778009 0.00019733758 -0.08555652 0.032753065 -0.03004766 0.028716814 -0.041441537
-0.08859571 -0.009339462 -0.124435656 -0.12116145 0.06824022 0.078878745 0.22860432 0.042978667
-0.06885894 -0.069002226 0.09752655 0.1139336 -0.27171 -0.0058457237 0.27664948 -0.104425386
-0.27057078 -0.15895501 0.33257884 -0.5095968 -0.13380516 0.15271135 0.08448174 0.08436601
0.13173512 -0.09834674 0.060716175 -0.05417352 0.07950913 0.0656082 0.019348012 0.0943343
-0.28524825 0.10776439 0.07237057 -0.011581399 0.11428736 -0.057945326 0.046123333 -0.061602976
-0.053699806 0.008460665 0.064715415 -0.15962183 -0.10743759 0.04614592 0.062091764 0.09479551
-0.026750036 0.058550786 -0.045829795 -0.26027855 -0.3115107 -0.007994792 0.17121322 0.056155022
-0.17845175 -0.01157582 -0.016530182 -0.07651525 0.036016516 0.14695172 -0.14359047 -0.14726605
0.088498496 0.14769988 -0.06353552 -0.081734285 0.08642403 0.013187953 -0.106482744 -0.030549545
0.03401887 -0.12553363 0.18771444 0.15043081 -0.27634758 -0.021483878 0.09981808 0.032242473
00000000: 16db 85be c9e8 b63c 6ddd c2bd a05c 1b3d
00000010: d602 2b3e 995a 903c 0111 7abd c1f6 c0bd
00000020: d8bf 1d3d f7fa 94bd aeac 26be ea28 29bd
00000030: bc36 1f3d e8c5 073e 777e fc3b 6be7 bfbc
00000040: 46a6 0cbd 414f 203b 85a5 913c 47b3 90bc
00000050: a7c2 12bd d17f 15be 2d20 01be 5ebb 66bd
00000060: 0bd1 c9bd f131 ee3d f0e6 1ebd ed75 c7bd
00000070: 040c 453d bc21 253d c275 0fbd b244 5b3d
00000080: 33d1 a83d 8be3 66bd 27e9 c3bd 6bfc a13c
00000090: 55e7 183d 0594 0a3d 07f1 cdbd 09db 073e
000000a0: aabd 863d a9dc ffbd d21b 5cbe 9012 d13d
000000b0: bc9d 6e3e 37fb c1bd 622a 79be f405 393e
000000c0: ec6a 593d 3c82 b0bd c201 29bd b0bb 3d3e
000000d0: 04c4 823e 70e8 143b 5bff 79bd ebb6 a73d
000000e0: 3c6a e3bd 36a9 5cbd c315 263d 79ae 0ebc
000000f0: fece 1dbe 9cfd c9bd e653 ec3c 1d58 dd3d
00000100: a244 ddbc 9ddc 96be 920d 1abd 523f c43c
00000110: 014b 9ebe aee2 e63c 6008 f13e d292 483e
00000120: 4f0f 5e3d 642e 073d 7798 00ba 33c4 0bbe
00000130: 02fa 84be 393c 4cbe a667 db3c ce64 913d
00000140: 2c34 923d 589a 373c d1f1 073d 515a 31be
00000150: 80a1 4ebd 5623 363c 5837 f7bd 09bf 083d
00000160: b883 4c3e 604b d4bd 610e 3f3d 8f8a 923e
00000170: 1b48 663d 962f 81bd 5117 d4bd eb32 53be
00000180: 2de7 8d3d b1e2 babd 263b 88be 085c 3b3e
00000190: caef 98bb 484c 78bd f08b 65bd a4f8 8dbd
000001a0: fe04 78be 1e49 d4bd 8e6e 3ebd 1541 f13b
000001b0: b192 2f3e 45a4 9a3e d043 ad3d 8ca8 b0bd
000001c0: fcd3 413d 00ba 443e d4c8 91bd ea24 ae3d
000001d0: 3318 05be 777e 80be 405c a438 3eda 71bd
000001e0: f7e7 2ebe 277b d33d 9097 083e 6d5e f53d
000001f0: 82e2 243e 8f17 dd3d 73f2 86bd dec3 68be
00000200: 9a25 603e 57a0 773d a86e 17be 87ac 99bc
00000210: b998 7abd 7116 f7bd 9f36 df3d 0798 483e
00000220: c602 cabd b89d 74bc c621 063e b611 003c
00000230: 4c7a 09be 497e 0b3d c66f 1d3d 1bbe d9bd
00000240: 06d5 983d 9884 343e fa65 0bbe 73c1 a73d
00000250: 78dc cabc e9cb 83bd e67b 28bd 7a7a b03d
00000260: 1f0f 72bd 64f0 993d d56b 42be 495b 62bd
00000270: 0a7d c6be dcb2 fbbc c9b3 473e efed e03c
00000280: 055d f03d 789b 0d3e e6d4 51bd 63bf 01bd
00000290: 7b38 fabd 3f25 c23c 163c c33d f1b4 98bd
000002a0: afb7 ffbd 7011 36be 67ec 4e39 4238 afbd
000002b0: 1428 063d 8326 f6bc 863f eb3c 9abe 29bd
000002c0: ab71 b5bd 8b04 19bc 1fd8 febd 7f23 f8bd
000002d0: 87c1 8b3d 2e8b a13d 4017 6a3e 660a 303d
000002e0: ea05 8dbd 0a51 8dbd 00bc c73d 0556 e93d
000002f0: 931d 8bbe 7c8d bfbb 00a5 8d3e fadc d5bd
00000300: 4188 8abe 1ac5 22be c647 aa3e f074 02bf
00000310: 3804 09be 5d60 1c3e c304 ad3d 16c8 ac3d
00000320: 92e5 063e 046a c9bd 86b1 783d 0ee5 5dbd
00000330: afd5 a23d 985d 863d b97f 9e3c 5732 c13d
00000340: 0f0c 92be 94b3 dc3d 0537 943d e8bf 3dbc
00000350: 7e0f ea3d 1458 6dbd d2eb 3c3d 6753 7cbd
00000360: 54f4 5bbd 9a9e 0a3c 8489 843d e873 23be
00000370: 3d08 dcbd 8103 3d3d ef53 7e3d 2624 c23d
00000380: e422 dbbc f3d2 6f3d 06b8 3bbd 3b43 85be
00000390: 557e 9fbe 97fc 02bc 8552 2f3e cf02 663d
000003a0: 0ebc 36be 82a8 3dbc 4e6a 87bc 07b4 9cbd
000003b0: 0e86 133d 837a 163e 6109 13be e9cc 16be
000003c0: b33e b53d a33e 173e e91e 82bd 4e64 a7bd
000003d0: 15ff b03d 4912 583c a013 dabd 0a43 fabc
000003e0: 5f57 0b3d e38b 00be 3738 403e 890a 1a3e
000003f0: 6e7d 8dbe f5fe afbc 6c6d cc3d af10 043d
